…
Processing '/home/can/Datasets/jena_climate.csv' dataset with LSTM layer type, 10 layer number, 16 units per layer, 20 epochs, and 16 batch size as 'passive-acoustic-surveillance.keras' in the script directory.

Found 420451 samples and 15 data in each sample.
Raw data shape : (420451, 14)
Target shape   : (420451,)

Splitted the raw data into train (210225 samples), validation (105112 samples) and test (105114 samples) groups.

Model: "passive-acoustic-surveillance"
┏━━━━━━━━━━━━━━━━━━━━━━━━━━━━━━━━━┳━━━━━━━━━━━━━━━━━━━━━━━━┳━━━━━━━━━━━━━━━┓
┃ Layer (type)                    ┃ Output Shape           ┃       Param # ┃
┡━━━━━━━━━━━━━━━━━━━━━━━━━━━━━━━━━╇━━━━━━━━━━━━━━━━━━━━━━━━╇━━━━━━━━━━━━━━━┩
│ input_layer (InputLayer)        │ (None, 120, 14)        │             0 │
├─────────────────────────────────┼────────────────────────┼───────────────┤
│ lstm (LSTM)                     │ (None, 120, 16)        │         1,984 │
├─────────────────────────────────┼────────────────────────┼───────────────┤
│ lstm_1 (LSTM)                   │ (None, 120, 16)        │         2,112 │
├─────────────────────────────────┼────────────────────────┼───────────────┤
│ lstm_2 (LSTM)                   │ (None, 120, 16)        │         2,112 │
├─────────────────────────────────┼────────────────────────┼───────────────┤
│ lstm_3 (LSTM)                   │ (None, 120, 16)        │         2,112 │
├─────────────────────────────────┼────────────────────────┼───────────────┤
│ lstm_4 (LSTM)                   │ (None, 120, 16)        │         2,112 │
├─────────────────────────────────┼────────────────────────┼───────────────┤
│ lstm_5 (LSTM)                   │ (None, 120, 16)        │         2,112 │
├─────────────────────────────────┼────────────────────────┼───────────────┤
│ lstm_6 (LSTM)                   │ (None, 120, 16)        │         2,112 │
├─────────────────────────────────┼────────────────────────┼───────────────┤
│ lstm_7 (LSTM)                   │ (None, 120, 16)        │         2,112 │
├─────────────────────────────────┼────────────────────────┼───────────────┤
│ lstm_8 (LSTM)                   │ (None, 120, 16)        │         2,112 │
├─────────────────────────────────┼────────────────────────┼───────────────┤
│ lstm_9 (LSTM)                   │ (None, 16)             │         2,112 │
├─────────────────────────────────┼────────────────────────┼───────────────┤
│ dropout (Dropout)               │ (None, 16)             │             0 │
├─────────────────────────────────┼────────────────────────┼───────────────┤
│ dense (Dense)                   │ (None, 1)              │            17 │
└─────────────────────────────────┴────────────────────────┴───────────────┘
 Total params: 21,009 (82.07 KB)
 Trainable params: 21,009 (82.07 KB)
 Non-trainable params: 0 (0.00 B)

Fitting the model with common datasets:

Epoch 1/20
2026-02-02 15:45:00.013705: W external/local_tsl/tsl/framework/cpu_allocator_impl.cc:83] Allocation of 23545200 exceeds 10% of free system memory.
13095/13095 - 5772s - 441ms/step - loss: 17.1405 - mae: 3.1845 - val_loss: 14.8197 - val_mae: 3.0194
…
